src/models_checkpoints/basic-classifier.pth (torch, 2380 bytes, 5 tensors)

model.0.weight f4 [16, 2]
0	0x3f0843f6	0.532287
1	0xbf08fb9c	-0.53508925
2	0xbdc81f6a	-0.09771617
3	0xbef92f5e	-0.4866895
4	0x3d64c4d9	0.05585179
5	0x3e84d600	0.2594452
6	0x3f06c8e0	0.5265026
7	0x3efa3ed1	0.4887605
8	0x3f09552b	0.5364558
9	0x3f13b6fc	0.57701087
10	0x3f082705	0.5318454
11	0xbdb2a191	-0.087222226
12	0x3df8447b	0.121224366
13	0xbe9f62ae	-0.31129974
14	0xbe790086	-0.24316606
15	0x3e917819	0.2841194
16	0xbea564fe	-0.32303613
17	0x3f32ef23	0.69896144
18	0x3eddbb8e	0.43307155
19	0xbf0271e8	-0.5095506
20	0x3f0a71ed	0.54080087
21	0x3ede8686	0.43462008
22	0xbef702c5	-0.482443
23	0x3e95c32a	0.2925046
24	0xbe3bc49e	-0.18336722
25	0xbde5f8b7	-0.11229079
26	0x3ee93e5f	0.45555398
27	0xbe5aaa3e	-0.21354005
28	0xbe9ff108	-0.3123858
29	0x3f023f2a	0.5087763
30	0xbdf32eb4	-0.11874142
31	0xbf23079f	-0.63683504

model.0.bias f4 [16]
0	0xbd862601	-0.065502174
1	0xbed6f60b	-0.4198459
2	0x3e989942	0.29804426
3	0xbdf348de	-0.11879133
4	0xbea56170	-0.323009
5	0x3f07a4e2	0.52985966
6	0xbe9a4db6	-0.30137414
7	0x3e2a4261	0.16626884
8	0xbee5cb64	-0.44881737
9	0x3ed5b5ff	0.41740415
10	0x3e16c89f	0.14724968
11	0xbe610ce6	-0.21977577
12	0x3e8778f6	0.26459473
13	0x3d98bbfd	0.07457731
14	0xbf134235	-0.575229
15	0xbf1cd741	-0.6126595

model.1.weight f4 [2, 16]
0	0x3d89e31f	0.06732773
1	0x3e6ca5ca	0.23110119
2	0xbb185da0	-0.0023249164
3	0xbe643f93	-0.22289877
4	0xbe4b36c7	-0.19845115
5	0xbe43d8b8	-0.1912564
6	0xbe6f5432	-0.23371962
7	0x3e495f0d	0.19665165
8	0xbe13b7dd	-0.14425607
9	0xbd856712	-0.065138
10	0xbe6a4f24	-0.22881752
11	0x3e5a1695	0.21297677
12	0x3e237edd	0.15966363
13	0x3d1f6f00	0.038924217
14	0x3e5f9206	0.21833047
15	0xbe572ee1	-0.21013977
16	0x3ec81398	0.3907745
17	0xbe035f45	-0.12829311
18	0xbe659739	-0.22420968
19	0x3e9af928	0.30268216
20	0x3d8b76f9	0.068098016
21	0xbe1b0bef	-0.15141271
22	0x3cbf3fc9	0.023345845
23	0xbe14cedc	-0.14532036
24	0xbe453e90	-0.19262147
25	0x3d356fb7	0.044295993
26	0x3e75fc1b	0.24021952
27	0xbd06881b	-0.032844644
28	0x3e0da4b7	0.13832365
29	0x3ea9ab77	0.3313863
30	0xbc11eef3	-0.008907068
31	0x3e3e0337	0.18555914

model.1.bias f4 [2]
0	0x3e063a39	0.13108148
1	0xbdc1f5e9	-0.09470732

criterion.weight f4 [2]
0	0x3ba9c84a	0.005181347
1	0x3b5beb62	0.0033557047
